mnist_baseline.pt (torch, 408713 bytes, 4 tensors)

fc1.weight f4 [128, 784]
000000 9d 3d d4 3e 66 bf c2 3e 0e 46 c7 3e c6 66 d3 3e
       0.41453257 0.3803665 0.38920635 0.41289347
000010 8d 9a b9 3e f4 c8 d5 3e 85 0e c7 3e 18 1f d4 3e
       0.36250725 0.41754878 0.38878265 0.41429973
000020 4e 5c cd 3e 5e 94 c8 3e e8 e3 cf 3e 7a b8 cb 3e
       0.40109485 0.39175695 0.40603566 0.39789182
000030 42 7f d1 3e 4f b1 c3 3e 40 7c c9 3e 1e 2c c9 3e
       0.40917403 0.38221213 0.39352608 0.3929147
000040 0c 78 cd 3e d9 be ca 3e b2 cd da 3e 44 82 d0 3e
       0.4013065 0.3959873 0.42735058 0.40724385
000050 44 02 c4 3e 53 c6 bf 3e ea c0 c7 3e 63 ee c2 3e
       0.3828298 0.37455997 0.3901437 0.380725
000060 7c f5 c4 3e b0 b1 cb 3e 26 b8 d5 3e f6 c1 d4 3e
       0.3846854 0.39784002 0.41742057 0.4155423
000070 7e f1 b8 3e 87 27 d6 3e 48 ed cf 3e ec 29 dc 3e
       0.36121744 0.41827032 0.4061072 0.43000734
000080 6d e3 d6 3e 49 17 ba 3e 87 1e b8 3e b1 59 c0 3e
       0.41970387 0.3634589 0.3596079 0.3756843
000090 59 95 da 3e d1 c5 c7 3e ec a4 d2 3e 2c 52 c2 3e
       0.42692068 0.3901811 0.4114145 0.37953317
0000a0 d2 c2 dc 3e f8 14 c3 3e 1a 88 d8 3e fb 08 cb 3e
       0.43117386 0.38101935 0.42291337 0.3965529
0000b0 03 c8 c0 3e c6 1c d2 3e d1 a4 c0 3e 49 32 d0 3e
       0.37652597 0.41037577 0.37625745 0.40663365
0000c0 d6 89 c5 3e 55 d0 c8 3e 27 3d b9 3e ab 19 c2 3e
       0.38581723 0.39221445 0.36179468 0.37910208
0000d0 bc bd d4 3e ab 5f c6 3e 3f 08 dd 3e f4 79 d9 3e
       0.41551006 0.38744864 0.43170354 0.42475855
0000e0 5c f6 c9 3e f8 9c be 3e 3b f4 d5 3e 5d 7e d0 3e
       0.3944577 0.37229133 0.41787896 0.40721408
0000f0 92 ff be 3e d3 a1 d6 3e 29 e5 d4 3e 3d a4 d9 3e
       0.3730436 0.41920337 0.41581085 0.42508116
000100 23 12 c0 3e 9f 87 c7 3e c3 39 c8 3e 75 4f ca 3e
       0.37513837 0.38970658 0.3910657 0.39513746
000110 39 d4 bb 3e ba e2 bd 3e 5a b5 d4 3e 2b 12 c6 3e
       0.3668535 0.3708704 0.4154461 0.38685736
000120 21 4e d3 3e c2 71 c9 3e 5c ef ce 3e bd cc ce 3e
       0.41270545 0.39344603 0.40416992 0.40390578
000130 a2 77 d1 3e 15 e2 d3 3e 49 e2 b9 3e da 05 d4 3e
       0.40911585 0.41383424 0.36305454 0.41410714
000140 22 f6 bd 3e 96 05 bd 3e 3a ee cb 3e d9 b3 c7 3e
       0.37101847 0.36918324 0.3983019 0.390044
000150 ef 8e d5 3e 89 3a c0 3e 1a 90 ba 3e 63 20 d8 3e
       0.41710612 0.3754466 0.36438066 0.4221221
000160 6b 1b c8 3e 15 f1 d4 3e 5a a0 cf 3e f4 08 bb 3e
       0.39083418 0.4159018 0.40552026 0.36530268
000170 3d 8a cb 3e 7c 84 c9 3e c3 a1 ab 3e 9c 9c ab 3e
       0.39753905 0.3935889 0.33521852 0.3351792
000180 11 40 c1 3e 22 47 c0 3e 70 a3 ae 3e 7b bd ae 3e
       0.3774419 0.3755427 0.34109068 0.34128937
000190 55 59 ba 3e fe 54 b2 3e 33 05 cc 3e 00 be e2 3e
       0.3639628 0.3483047 0.39847717 0.44285583
0001a0 79 67 af 3e 5c 93 be 3e da 88 eb 3e 17 19 cc 3e
       0.3425863 0.372218 0.46002847 0.39862892
0001b0 51 5a d7 3e 9f 9b ce 3e 1a b3 d0 3e 37 7a d8 3e
       0.42061093 0.40353104 0.40761644 0.42280743
0001c0 53 28 dc 3e 3c af be 3e d3 1a cd 3e ef 76 d8 3e
       0.42999515 0.37243068 0.40059528 0.4227824
0001d0 8d 91 d8 3e 72 b8 22 be a0 16 57 be b8 8b 86 3e
       0.42298546 -0.15890673 -0.21004725 0.26278472
0001e0 82 67 9e 3e 9b 5e a8 3e d8 0a e5 3e 37 85 c3 3e
       0.30938345 0.32884678 0.44734836 0.38187572
0001f0 6e 1e ba 3e 2c b8 13 3e 5c 51 ac be 04 ed 4a be
       0.3635134 0.14425725 -0.33655822 -0.19816977
000200 39 94 86 bd fa 4b ad 3e e5 64 e2 3e f9 80 39 3f
       -0.0657124 0.33847028 0.442176 0.7246242
000210 5a 73 40 3f 52 1f 1d 3f ee f9 f4 3e ef f4 da 3e
       0.7517601 0.61375916 0.4784693 0.42764995
000220 52 7d d9 3e 81 49 d1 3e 7e 50 be 3e 86 76 bb 3e
       0.42478424 0.40876392 0.37170786 0.36613864
000230 8f 70 c2 3e 72 b0 c8 3e 3d 9c bf 3e 92 42 d1 3e
       0.379765 0.39197117 0.37423888 0.40871102
000240 d3 52 d1 3e f8 59 23 be 90 bb 8a be e7 a0 bc be
       0.40883502 -0.15952289 -0.27096224 -0.3684151
000250 e1 ff 7e 3e ea 37 9b 3e 37 c4 8a 3d 31 40 0e bd
       0.24902298 0.30316097 0.06775706 -0.034729186
000260 18 27 95 be 97 6d 8d be 16 db 89 be a1 84 87 be
       -0.2913139 -0.27622673 -0.26924962 -0.26468375
000270 d2 33 7b be ad b3 27 3c 52 2c 2e 3f 2a 24 76 3f
       -0.24531487 0.010235709 0.6803638 0.9614893
000280 0a d0 8e 3f 2f 64 72 3f 2a 75 1b 3f 51 ed e2 3e
       1.1157238 0.9468412 0.60725653 0.44321683
000290 46 8d c7 3e 1e 2b d0 3e 61 29 c4 3e d0 b5 c6 3e
       0.3897497 0.40657896 0.3831282 0.38810587
0002a0 10 3f bc 3e 12 7c c2 3e b8 69 c3 3e e2 4a c8 3e
       0.36766863 0.37985283 0.38166595 0.3911963
0002b0 45 6d c3 3e c0 67 30 be 85 b8 db be 1a 22 d8 be
       0.38169304 -0.17227077 -0.42914215 -0.42213517
0002c0 48 d9 00 bd 74 c5 8b 3b 37 67 99 be e1 e9 a8 be
       -0.031457216 0.0042654816 -0.2996156 -0.32990935
0002d0 55 12 bb be 07 f3 b5 be 1f 33 80 be 1f 71 24 be
       -0.36537424 -0.35536978 -0.25039002 -0.16058777
0002e0 68 4f 1f be 56 de 0d 3e 12 67 cd 3e 8e d7 44 3f
       -0.15557635 0.13854346 0.401177 0.7689141
0002f0 f4 40 8f 3f c2 52 91 3f ab dc 15 3f b9 58 11 3f
       1.1191697 1.1353381 0.5853984 0.56776005
000300 cc be dd 3e 36 c0 d8 3e 43 4f e5 3e ba f4 bd 3e
       0.4330963 0.42334145 0.44787034 0.37100774
000310 e2 67 d3 3e f3 90 d6 3e 88 e7 d4 3e 8b 18 51 3a
       0.41290194 0.41907462 0.41582894 0.00079763745
000320 7e 96 61 3d cb c8 30 be 4d 68 5d bd c5 8a d4 bb
       0.05507516 -0.17264096 -0.054054547 -0.006486269
000330 55 db cc bc 51 6f 04 be bf 66 1a 3c c2 e5 91 bc
       -0.02500693 -0.12933089 0.009423911 -0.017809752
000340 82 d3 a2 bd 87 93 10 be fb 50 82 bd 7d 7f 94 3c
       -0.07950498 -0.14118777 -0.06363102 0.018127197
000350 16 ea d0 3c a9 54 dd 3d ae 93 a0 3e 20 9c 2e 3f
       0.025502246 0.10807163 0.3136267 0.6820698
000360 bb 32 63 3f 45 2b 4e 3f ad 5a 58 3f 73 4e 6e 3f
       0.88749284 0.80534774 0.8451336 0.93088454
000370 e2 68 57 3f dc 00 df 3e 47 89 bd 3e 1e f0 bd 3e
       0.84144413 0.43555343 0.37018797 0.37097257
000380 1a c2 d3 3e 34 ae bd 3e c3 db c2 3e b5 62 9e 3d
       0.41359025 0.3704697 0.3805829 0.077336706
000390 82 7c b9 3d 18 c5 8b 3e 0e e6 c2 3e 8e 88 19 3f
       0.09056951 0.27298808 0.38066143 0.5997399
0003a0 4c a4 ab bd cb f2 80 be 80 88 d8 bd 04 85 98 be
       -0.083809465 -0.25185236 -0.1057291 -0.29788983
0003b0 4e 71 68 be b5 c1 29 be a6 6b c8 bc 83 88 0f bd
       -0.22699472 -0.165778 -0.024465393 -0.035042297
0003c0 34 e7 b3 bb bf 67 a5 bc b4 d8 64 3b 7f e0 6d 3e
       -0.005490208 -0.020191072 0.0034919204 0.2323017
0003d0 b5 1c 1a 3f ba 71 36 3f 98 52 38 3f d9 12 23 3f
       0.60200053 0.7126728 0.7200103 0.63700634
0003e0 c5 78 32 3f 90 fe de 3e b6 83 d7 3e 86 9b c4 3e
       0.6971553 0.4355359 0.42092675 0.38399905
0003f0 80 a3 cb 3e c8 f9 d2 3e 77 20 cd 3e 49 d8 bf 3e
       0.39773178 0.41206193 0.4006383 0.374697

fc1.bias f4 [128]
000000 c9 a4 d7 be ec e3 07 bf 15 bc 0c bf 34 68 49 bf
       -0.4211791 -0.53082156 -0.5497449 -0.78674626
000010 0b 17 9e be fe 51 01 bf 02 8e c8 be 00 38 e8 bd
       -0.30876955 -0.50515735 -0.39170843 -0.11338806
000020 ca 01 d6 bd d2 f5 10 bd 89 df 28 bd ad a9 61 be
       -0.1044956 -0.035390683 -0.041228805 -0.22037382
000030 73 4b 31 bd a6 05 26 bd e8 4b 86 be b5 0e 19 be
       -0.043284845 -0.04053273 -0.26229787 -0.14947017
000040 2d bb 29 bf a7 64 e7 be 49 0c aa be 88 5f 0e bf
       -0.6630123 -0.4519398 -0.33212498 -0.5561452
000050 8a 83 c9 be 62 1b b9 bd 4a 3e 12 bf bb 41 99 bd
       -0.3935817 -0.09038426 -0.57126296 -0.0748324
000060 04 eb 6a bd fe 54 a9 be 01 ca 2c bf cd d4 ba be
       -0.057353035 -0.33072656 -0.67495733 -0.3649048
000070 0c 22 f5 bd cc 79 81 bd a0 5c 37 bf 66 44 10 bf
       -0.119693846 -0.06322059 -0.7162571 -0.5635437
000080 ef e7 1c bf b1 0a 4b bd ca 94 ff be 4c 93 65 bf
       -0.612914 -0.049570743 -0.49918205 -0.8967788
000090 b4 98 2f bf 0e 33 23 be 99 f3 71 bf 57 ea 44 be
       -0.6859238 -0.15937445 -0.94512326 -0.19230019
0000a0 2c 5f 3a bf b7 49 0e bf ad 2a 68 bd f3 da f1 be
       -0.7280147 -0.5558123 -0.056681324 -0.47237357
0000b0 56 c8 34 bf 25 6c 1d bf 4f 65 d7 be e1 c6 44 bf
       -0.7061819 -0.6149314 -0.4206948 -0.76865965
0000c0 ff 9d 88 bd 25 26 56 bf 13 38 8b bd f3 b6 36 bd
       -0.0667076 -0.83651954 -0.06797805 -0.044608068
0000d0 12 df 3f be 13 5e d7 be c2 82 b4 bd d9 69 09 be
       -0.18737438 -0.4206396 -0.088140026 -0.13419284
0000e0 a8 12 2c bd 4b 8a bd be c7 09 1d be 3f 30 bb be
       -0.04200998 -0.37019572 -0.15335761 -0.36560246
0000f0 4e ae f7 be 9d d1 2d be 67 d5 99 bd c2 34 a9 be
       -0.4837517 -0.16974492 -0.075114064 -0.33048064
000100 b6 12 15 bf e5 3b 74 be ce 05 95 bd 5b d3 dc be
       -0.58231676 -0.23850973 -0.07276498 -0.4313
000110 80 41 b8 be 6c 44 12 be 94 08 51 bf db 4b 23 be
       -0.35987473 -0.14283913 -0.81653714 -0.15946905
000120 79 9c 6f be 32 6e 73 bd 85 f7 f4 be f2 14 cc bd
       -0.23399533 -0.059431262 -0.47845092 -0.099649325
000130 e7 a7 e9 be 10 10 06 bf 6d dc 3d be 98 e2 82 bd
       -0.45635912 -0.5236826 -0.18541117 -0.063908756
000140 27 86 e0 be db 57 09 be 7e d8 ba be 7f 3f 9e bd
       -0.4385235 -0.1341242 -0.36493295 -0.07726955
000150 dc 37 bf bd d8 d9 c0 be af 0f 89 bd 68 f3 95 bd
       -0.09336826 -0.37666202 -0.066924445 -0.07321817
000160 ce 0c c3 bd 14 76 8c bd c4 3a c3 be cc 7a 07 be
       -0.09523927 -0.06858459 -0.38130772 -0.13230437
000170 7e 3e 12 bd 12 ae af bd a0 fd 34 bf 9e f6 3e bd
       -0.03570413 -0.08578123 -0.706995 -0.04662191
000180 84 56 6a be 60 6e a4 be c9 24 39 bf a7 f0 90 be
       -0.22884566 -0.3211546 -0.72321755 -0.28308603
000190 1e 45 d0 be 2d 32 10 bf e2 69 be bd 00 4d 6f be
       -0.40677732 -0.5632656 -0.09297539 -0.23369217
0001a0 44 70 f5 bc 82 f9 11 bf d3 a3 45 bd 02 04 1c be
       -0.029960759 -0.57021344 -0.048251938 -0.15235904
0001b0 96 38 0b bf d3 f2 88 bd 87 a2 da bd 0d e7 4f be
       -0.5438322 -0.0668694 -0.10675531 -0.20302983
0001c0 65 6f 68 bf b0 0e 34 bf d8 bb 6d be e4 67 59 bf
       -0.90794975 -0.7033491 -0.23216188 -0.8492415
0001d0 bf f1 ac bd 17 c3 4b bf 14 f2 b7 bd ed 91 4f be
       -0.08444547 -0.7959456 -0.089817196 -0.2027051
0001e0 e3 e6 4e bf 17 53 ec bc 53 55 e9 bc c5 cc 1b bd
       -0.80821055 -0.028848214 -0.028483069 -0.03803708
0001f0 10 2a 7c bd a5 a0 20 bf b7 7e 79 be 58 c2 d8 bd
       -0.06156355 -0.62745124 -0.24364744 -0.10583943

fc2.weight f4 [10, 128]
000000 05 b1 42 3c fe a1 4a 3e c2 40 94 3e 92 7d b7 bd
       0.011883025 0.19788358 0.28955656 -0.089594975
000010 31 ea 5b bd 06 0c ed be d8 73 db bd 09 83 cb 3c
       -0.05369014 -0.46298236 -0.10715455 0.024842756
000020 8d b9 be bc 4c 58 4c 3c 3b ec 6a bc 05 80 b6 bd
       -0.023281837 0.0124722235 -0.014338548 -0.089111365
000030 83 0d 9d bc db 9b 16 3d 7d 9d 27 bf c2 f3 9e bc
       -0.019171482 0.03676973 -0.65474683 -0.019403342
000040 c9 24 01 3e 42 10 ca be bc 24 03 be 6c 0b f2 3e
       0.12611689 -0.3946553 -0.12806982 0.4727434
000050 c9 53 7c bc 22 c5 0c 3d b5 be a2 be ba 4d a2 3c
       -0.015400835 0.034367688 -0.31786123 0.019812454
000060 76 ef 94 3d 9b a5 6d be a5 78 85 be 13 76 0c be
       0.07272236 -0.23207705 -0.26068607 -0.13716917
000070 44 a6 cb 3c 82 c0 ba bc c8 f1 0c 3f f8 40 27 be
       0.024859555 -0.022796873 0.5505643 -0.16333377
000080 49 a0 5a c0 a9 de 9d 3d 5b bd 80 3e 62 ae 1d bf
       -3.416033 0.07708485 0.25144467 -0.6159421
000090 a2 6d af 3e 13 af 36 bd 47 25 b1 be a9 20 05 3e
       0.3426333 -0.044600558 -0.34598753 0.1300074
0000a0 34 90 1d c0 61 b6 a7 3d 96 18 af be e4 cd ac 3d
       -2.4619265 0.08189083 -0.34198445 0.08437708
0000b0 4a 2a 06 bf bd 60 23 c0 ca c9 87 bd b1 0d 90 3e
       -0.5240828 -2.5527794 -0.06630285 0.28135446
0000c0 02 9c 16 bb 93 af cb be c9 77 4a bc ad bf 8a bd
       -0.0022981171 -0.3978239 -0.012357661 -0.067748405
0000d0 f1 84 41 bf 73 1a 2c 3e 9e 6e 96 bc df c8 18 bf
       -0.7559348 0.16806965 -0.018363293 -0.59681505
0000e0 89 31 ba 3c 4c 88 07 3e d5 d9 83 bd a5 5a 2b bf
       0.022728698 0.13235587 -0.064380325 -0.6693519
0000f0 1e 86 86 3e ae e9 1e 3e 8b 0f aa 3d 64 d3 e8 3d
       0.26274198 0.15518829 0.08303746 0.113684446
000100 7e 50 3b bf f4 3c a4 3c b3 66 31 bd 22 0d 21 bf
       -0.73169696 0.020048596 -0.043310832 -0.62910664
000110 bc fc 57 3d 51 9a 1e bc 35 0b 6e 3e 54 49 a1 bf
       0.05273126 -0.009680347 0.23246463 -1.2600503
000120 a5 bc e6 3c 3f b9 db bd 58 0e d3 bf de 8c de 3c
       0.028166125 -0.10728692 -1.6488752 0.02716678
000130 ed 70 05 3f 2e 72 47 be 90 c1 44 3d 7a 7a 03 bc
       0.52125436 -0.1947715 0.048036158 -0.008024806
000140 32 a2 18 be 25 13 32 3c de d2 6d bb 1c 85 65 3c
       -0.14905623 0.010868822 -0.0036289017 0.0140087865
000150 4d ab 82 bd d6 07 7a be 17 42 86 3c 4c d0 5b 3c
       -0.06380329 -0.24417052 0.016388936 0.013416361
000160 ab 99 d4 bb 2e 75 2d bd d8 90 bc 3d f7 39 cb 3c
       -0.006488045 -0.04234808 0.09207314 0.024807913
000170 89 48 38 3d 94 f8 c1 bd b4 f0 56 3f 0d 0b 08 be
       0.04499105 -0.09471241 0.83961034 -0.13285466
000180 3e 39 7e 3e 8a c2 83 be 93 fc c5 bc 38 b7 43 3d
       0.24826524 -0.2573436 -0.024168288 0.047782153
000190 3e ea 0b 3e 48 d7 bb be 9e 76 40 3d e3 9d 37 3e
       0.13663575 -0.36687684 0.046988122 0.17931323
0001a0 76 bd 95 3c 9f aa 58 bf f8 08 8b bd d5 c7 91 3d
       0.018278819 -0.8463535 -0.0678882 0.07118193
0001b0 35 e5 81 bd 4d d9 f5 3c 58 07 35 3c 12 ce bf 3d
       -0.06342546 0.030010844 0.011049114 0.09365477
0001c0 cf 5c e0 3d 34 bd a9 be e2 24 d5 3d c3 99 13 3f
       0.10955202 -0.33152163 0.104074255 0.57656497
0001d0 31 17 b6 3d 16 be 31 3c 33 91 66 bd 9e fd f4 3e
       0.08891142 0.010848543 -0.056290817 0.47849745
0001e0 00 50 73 be 84 ae 0f 3d 33 da c5 3c ad d7 86 3c
       -0.23760986 0.03507854 0.024151897 0.016460264
0001f0 5a 21 3b 3a f2 a3 11 3f d0 87 07 3e a9 a5 05 bd
       0.00071384537 0.56890786 0.13235402 -0.03262869
000200 8e e5 68 be 62 fe c8 be ad b7 a3 3b 7d 98 d9 be
       -0.22743818 -0.3925658 0.004996261 -0.42499152
000210 1a 91 b1 bd 6b 39 2d 3e e4 94 6e 3c 63 7b bc bd
       -0.08670254 0.16916434 0.0145618655 -0.09203222
000220 ae 0b 3f bd df a9 6e bd 7f 74 4b bc d1 44 5d be
       -0.046641998 -0.05826747 -0.012417912 -0.21608283
000230 54 2c 98 3d 1e 6b a2 3d 4e bf d3 3c f0 cf 56 3d
       0.0743033 0.07930587 0.025848057 0.0524444
000240 0d e8 a7 be 2c 0e 78 3e cb 88 2a bf bc 1b 83 bf
       -0.32794228 0.24224156 -0.6661498 -1.0242839
000250 f9 ba 8d 3e a2 f2 9e bd 8a 90 23 be ca df a1 bd
       0.2768171 -0.07761122 -0.15973106 -0.079040125
000260 00 23 c6 bc 73 f1 ff bd a6 8e 9d 3e 20 39 55 3e
       -0.024186611 -0.12497225 0.30772895 0.20822573
000270 d2 16 82 bd f8 1d 63 3d cd ac 0a bf e7 df 7b 3e
       -0.06352009 0.055448502 -0.54169923 0.2459713
000280 4c c6 df 3c f5 a6 e9 bd 74 65 bb bd ba 0f 47 bf
       0.027316235 -0.11408798 -0.0915021 -0.7775837
000290 78 0b f4 bf 7e 7d 06 be 43 46 11 c0 5f f8 7a bd
       -1.9066 -0.13133809 -2.2699134 -0.06127202
0002a0 3f da 06 3f 61 a4 cc be 87 2d c1 bd c9 25 a0 bd
       0.5267677 -0.3996916 -0.09432512 -0.07819707
0002b0 9c a3 1f c0 3f d3 dd 3e 47 75 85 3e 80 0e 76 c0
       -2.494361 0.4332523 0.26066038 -3.844635
0002c0 87 ac be 3b c3 67 74 3e 20 99 08 be e3 de 16 3d
       0.0058189067 0.23867707 -0.13339663 0.036833655
0002d0 15 75 ec 3d 43 94 6f 3d 59 10 f7 bc 1a 83 34 3d
       0.11545769 0.058491003 -0.030159162 0.04407034
0002e0 cf 5b 92 3c 67 3c 80 bf f8 ec a2 bd c0 0c e6 3d
       0.017866043 -1.0018433 -0.079553545 0.112329006
0002f0 8a d4 fb be 00 f0 04 be 91 a4 7e bd 1e 07 eb bd
       -0.49185592 -0.12982178 -0.06216866 -0.11475967
000300 0d b2 3b 3d a1 89 0f 3d d7 43 a2 3d 29 1f bd be
       0.0458241 0.035043363 0.07923096 -0.36937836
000310 8d 79 b5 be 42 57 11 3d 67 21 23 bf 52 c7 5b 3e
       -0.35444298 0.035483606 -0.6372284 0.21462753
000320 fb fd 48 ba 9f 13 8a 3c fb f4 e6 bd ad da 8e bd
       -0.00076672406 0.01685506 -0.11277195 -0.06975303
000330 6d 53 72 bf 8b 42 c0 be 56 ec 2a 3a 65 40 e2 ba
       -0.9465855 -0.37550768 0.0006520202 -0.0017261623
000340 b8 ee 67 bf f5 73 a0 bc c7 56 1e be 7f 6a 1f 3b
       -0.9059863 -0.019586543 -0.1546279 0.0024324951
000350 96 69 01 be 1b f0 81 be b2 97 36 3d 0d 71 0a be
       -0.12637934 -0.25378498 0.04457826 -0.13519688
000360 ef a6 c7 bc f4 07 69 bc f3 4e 36 be b3 70 d6 bc
       -0.024371592 -0.014223088 -0.17803554 -0.026176786
000370 ba 75 ff 3d 8d 98 ef bd ab 38 02 c0 e8 b6 ef bd
       0.124736264 -0.116990186 -2.0347087 -0.117048085
000380 c8 db 77 bd 00 0d 30 be 0e 04 05 be f8 49 9f bd
       -0.060512334 -0.17192459 -0.12989828 -0.0777778
000390 f5 c2 8e bd a8 b3 a5 3d d9 05 02 be 95 f7 90 bd
       -0.06970779 0.08090907 -0.12697543 -0.070784725
0003a0 f6 5c d4 bc 97 7a d4 3e aa 3b 8e 3d 75 69 71 bd
       -0.025923233 0.4149978 0.06944974 -0.058938462
0003b0 16 c1 6d bf 51 b8 11 bc 9e 69 cf 3c 0b 83 a6 bc
       -0.9287275 -0.008894042 0.025318917 -0.020326158
0003c0 ea 4d 83 be b3 42 a9 bd 03 06 81 be 84 2c 01 c0
       -0.2564538 -0.08264675 -0.251999 -2.018342
0003d0 33 6f cd bd 90 3c eb 3c 67 d1 9e 3d 9d df de 3e
       -0.10030975 0.028715402 0.07754784 0.43529978
0003e0 a5 96 fe bd e5 68 db 3d fb 5c a8 bd 6e de d8 3d
       -0.12431077 0.107133664 -0.082208596 0.105893
0003f0 60 1b 3c 3d 99 3b 3c bf 32 d7 88 bc 7b a4 1a bd
       0.045924544 -0.7352844 -0.016704176 -0.037754517

fc2.bias f4 [10]
000000 ef cb 92 3f d3 82 f3 be cb 8b 9c be 0d ea 45 bf
       1.1468486 -0.47560748 -0.30575404 -0.7731026
000010 66 f8 83 bf 07 02 76 bf 08 02 c6 be 28 ca ea bf
       -1.031018 -0.96096843 -0.38673425 -1.8342943
000020 36 f7 47 40 3d b3 2a 3f
       3.1244636 0.66679746
